models/austin_mlp.pt (torch, 228255 bytes, 4 tensors)

linear.weight f4 [256, 100]
0.08898583 0.08798387 0.01571607 -0.08187312 0.07859399 0.063449904 0.090425365 0.06555178
-0.047332283 -0.0014868875 -0.09987188 -0.04999182 0.042295765 -0.08951773 0.059531122 0.013590181
0.00026145525 -0.036140006 -0.052980457 -0.021136818 0.05612438 0.010708469 0.0631333 -0.021560691
-0.039996333 0.06278947 -0.059960812 0.096192114 -0.10378739 -0.0502887 0.02852215 -0.06346063
-0.091619544 0.097032666 -0.04639436 -0.09342825 0.039090663 -0.020533403 -0.018164802 -0.09416902
-0.09432149 0.07793291 0.013810735 0.094080426 0.031455208 -0.093558595 -0.02766926 -0.048290454
0.033498555 0.087992966 0.03925806 0.08715622 0.046834573 -0.089802265 -0.009773627 0.03462667
-0.013184762 -0.03794952 -0.03560728 -0.06802605 -0.06432418 -0.0064854166 0.021800209 0.0025952929
0.040911853 -0.100655824 0.088450305 0.027569022 -0.04955687 -0.025462065 0.031588178 -0.011710675
-0.038839664 -0.06042742 -0.061357077 0.08988619 -0.080975875 0.06452789 0.047051724 -0.025743073
0.042806197 -0.07457773 0.065780394 -0.003585767 0.07567357 0.055586837 -0.08398695 0.091350645
0.092965044 0.07010395 0.017415503 -0.026318815 -0.04697516 0.06689991 0.009213201 -0.064088695
0.06441917 0.08816052 -0.030301426 -0.099757165 -0.06682508 -0.08892924 -0.02702815 -0.03372374
-0.045546263 -0.01241062 -0.0030640478 -0.06006505 0.023266727 0.01965563 -0.005641376 -0.088658944
-0.033484146 0.01295526 0.015025838 -0.074979804 -0.0016680905 -0.0866666 -0.010928533 0.090855554
0.035485957 -0.06328912 0.057403874 -0.07518986 -0.04629952 -0.06205783 -0.010799737 -0.023987453
-0.041912206 -0.03984226 -0.040456 0.018349413 -0.026408076 0.098217554 -0.05942767 -0.03056051
-0.058249127 0.10148371 -0.0557119 -0.09018396 -0.012161237 -0.041342888 -0.035050932 0.014868747
0.04995897 -0.039488025 -0.052423928 -0.062993616 -0.054607596 0.078764446 -0.08099651 -0.04314102
0.051199894 0.021616934 0.026730094 -0.00399536 0.11207832 -0.04140159 0.08828719 0.068796284
0.07003349 0.052946303 0.08710838 0.033838928 -0.04625468 -0.05260679 -0.07032871 0.074491024
0.108656056 -0.046969093 -0.01680838 0.020989785 -0.030685738 0.047402725 0.018377787 0.06874616
-0.07500669 0.035766896 0.09006643 0.053014528 0.043584093 0.039904874 0.008995606 -0.0014684309
-0.011005362 0.10764572 0.037776656 0.026905363 -0.016576217 0.08022419 -0.034995582 0.040263567
0.045415543 0.06854358 -0.05304234 -0.07513253 0.05517455 0.045416016 0.06816951 0.0309602
-0.043504287 -0.08412837 -0.053423304 -0.03646986 0.08033035 0.0032864932 -0.06462741 0.0883863
0.0532408 -0.038157057 -0.052265067 -0.0069106845 0.018154915 0.05302666 -0.05577939 -0.0957904
-0.008119831 -0.0791083 -0.039390057 -0.083217956 0.016337046 0.08108025 0.042227004 0.038466714
0.0028134913 -0.010243683 0.019641116 0.044328354 0.0554005 0.069961615 0.08357403 -0.09980593
0.058924567 0.037776623 0.012980607 0.037804663 -0.0379504 -0.032481473 -0.08797238 0.038114943
-0.056506164 -0.008197452 0.08310497 0.018079765 0.048150983 -0.088978685 -0.08535805 0.03679218
0.032537173 0.05093445 -0.040231425 0.049876507 -0.056669988 0.034380388 0.051111773 -0.03913106
00000000: 343e b63d e330 b43d fdbe 803c 18ad a7bd
00000010: e3f5 a03d 06f2 813d ef30 b93d 0340 863d
00000020: 7fdf 41bd aae3 c2ba a189 ccbd 39c4 4cbd
00000030: 533e 2d3d 1255 b7bd e8d6 733d 5aa9 5e3c
00000040: ee13 8939 8b07 14bd 0902 59bd 1f27 adbc
00000050: aee2 653d 9372 2f3c 084c 813d 0ca0 b0bc
00000060: 32d3 23bd c497 803d 7899 75bd 5f00 c53d
00000070: 7c8e d4bd 86fb 4dbd 49a7 e93c a6f7 81bd
00000080: 07a3 bbbd 10b9 c63d 0308 3ebd 4f57 bfbd
00000090: 881d 203d ab35 a8bc 5ace 94bc b0db c0bd
000000a0: a02b c1bd 4a9b 9f3d 6c46 623c 3dad c03d
000000b0: 2dd7 003d a69b bfbd a5aa e2bc 36cc 45bd
000000c0: c835 093d a835 b43d 0fcd 203d f67e b23d
000000d0: 9cd5 3f3d 40ea b7bd 9021 20bc b2d4 0d3d
000000e0: e604 58bc f570 1bbd f0d8 11bd 3e51 8bbd
000000f0: 65bc 83bd 9e83 d4bb 5a96 b23c ca15 2a3b
00000100: 3093 273d a424 cebd 6f25 b53d 6ed8 e13c
00000110: 25fc 4abd d295 d0bc 9b62 013d 22de 3fbc
00000120: 5716 1fbd be82 77bd 8f51 7bbd 4016 b83d
00000130: aed6 a5bd 3327 843d 4fb9 403d 23e3 d2bc
00000140: 8d55 2f3d 35bc 98bd dfb7 863d 30ff 6abb
00000150: bffa 9a3d 06af 633d 5a01 acbd 0c16 bb3d
00000160: 7564 be3d a992 8f3d f5aa 8e3c 8e9a d7bc
00000170: 0669 40bd d202 893d f7f2 163c ef40 83bd
00000180: 33ee 833d 818d b43d b23a f8bc 7c4d ccbd
00000190: 96db 88bd 8920 b6bd 246a ddbc e821 0abd
000001a0: b88e 3abd ea55 4bbc 31ce 48bb c506 76bd
000001b0: dd99 be3c d804 a13c 4bdb b8bb d292 b5bd
000001c0: ac26 09bd 4d42 543c ef2e 763c 038f 99bd
000001d0: d4a3 daba 427e b1bd 970d 33bc 7a12 ba3d
000001e0: b959 113d ba9d 81bd 5320 6b3d 24fd 99bd
000001f0: 91a4 3dbd 5a30 7ebd 61f1 30bc 5681 c4bc
00000200: 22ac 2bbd a331 23bd 31b5 25bd 8251 963c
00000210: c055 d8bc 4926 c93d 6e6a 73bd 095a fabc
00000220: a396 6ebd b1d6 cf3d 2932 64bd 5eb2 b8bd
00000230: ed3f 47bc 2957 29bd 9191 0fbd 0c9c 733c
00000240: c7a1 4c3d 32be 21bd 79ba 56bd cc02 81bd
00000250: 37ac 5fbd 414f a13d 80e1 a5bd a3b4 30bd
00000260: fbb6 513d ff15 b13c 12f9 da3c 82eb 82bb
00000270: 5189 e53d b794 29bd eacf b43d 11e5 8c3d
00000280: b86d 8f3d 39de 583d e165 b23d b09a 0a3d
00000290: 8c75 3dbd 387a 57bd 8008 90bd c08e 983d
000002a0: 1187 de3d aa62 40bd bab1 89bc c5f2 ab3c
000002b0: a860 fbbc 5c29 423d 038d 963c c9ca 8c3d
000002c0: 1c9d 99bd 4f80 123d c074 b83d c325 593d
000002d0: 3c85 323d 4b73 233d 4e62 133c 5d78 c0ba
000002e0: d54f 34bc 5c75 dc3d b2bb 1a3d a368 dc3c
000002f0: d9ca 87bc 954c a43d 8757 0fbd 69eb 243d
00000300: a605 3a3d 9460 8c3d ed42 59bd 15df 99bd
00000310: b5fe 613d 2506 3a3d 759c 8b3d 3fa0 fd3c
00000320: 8d31 32bd 7f4b acbd 65d2 5abd 6b61 15bd
00000330: 3d84 a43d 3562 573b 605b 84bd e003 b53d
00000340: 0613 5a3d 934a 1cbd e513 56bd 0673 e2bb
00000350: 9eb9 943c 7c32 593d ee78 64bd c22d c4bd
00000360: 0a09 05bc 8803 a2bd 7857 21bd 2d6e aabd
00000370: 45d5 853c 670d a63d 39f6 2c3d 468f 1d3d
00000380: 8d62 383b 1fd5 27bc 68e6 a03c a691 353d
00000390: a2eb 623d 0948 8f3d dc28 ab3d 0d67 ccbd
000003a0: e35a 713d a9bb 1a3d 9dac 543c 10d9 1a3d
000003b0: e171 1bbd 4b0b 05bd dd2a b4bd 6a1e 1c3d
000003c0: 0273 67bd 9b4e 06bc f032 aa3d 041c 943c
000003d0: f739 453d 753a b6bd 34d0 aebd 66b3 163d
000003e0: b345 053d a4a0 503d b5c9 24bd 4f4b 4c3d
000003f0: ca1e 68bd 73d2 0c3d 945a 513d e447 20bd

linear.bias f4 [256]
-0.021959651 -0.0070181964 0.018436192 -0.008001294 -0.009454269 0.009473319 0.01067818 0.004589031
-0.0020029836 0.022626294 -0.020708539 0.02307078 0.0127792265 -0.016752802 0.00023541307 0.008193616
-0.010428238 -0.009697707 0.016938087 0.011373697 -0.009217515 -0.013280562 -0.019285232 0.00029166337
-0.010870243 -0.0029171156 0.0024878858 0.008536042 0.005791001 -0.0054412275 -0.022046072 -0.011633798
-0.008564178 0.008556098 0.015667763 0.010603478 -0.009997325 -0.004521253 -0.011437177 -0.009569887
-0.02125428 -0.011365846 0.009685482 -0.02096806 0.000768795 0.012049706 -0.009434501 0.0056556794
-0.010692649 -0.01019196 -0.004797735 0.007385541 0.015310146 -0.0061072228 0.004838504 -0.016888313
0.008912556 -0.016998224 -0.007900759 0.0057793306 0.0050478913 -0.0060289237 0.0034922878 -0.01302446
0.0011845125 -0.020189654 0.0073839757 -0.027765812 0.015790442 0.0065029403 0.009402376 0.01483205
0.006672996 -0.004046745 -0.01609984 -0.0024153274 0.0033958417 0.0039372784 0.010586264 -0.009396066
0.0045848107 0.009828584 -0.006885272 0.0019937137 -0.017707577 -0.0069339206 -0.0043713227 -0.012266104
0.01917856 -0.010874464 0.009572966 0.0013330197 -0.016516183 -0.01815067 -0.0037022256 0.0041642836
0.011018185 0.0061500142 -0.0055637374 0.007154132 -0.002760539 0.008869317 0.01856074 0.0003304567
0.0017397676 -0.016818384 -0.0028781563 -0.005836056 0.006029471 0.0022441715 0.0039354307 0.010878967
-0.014805934 0.012034059 -0.009514315 0.008948723 0.0031845067 -0.0065572625 -0.0062014903 -0.010940311
-0.0035316744 0.0017484331 0.0121428035 -0.009912755 -0.026815545 0.006458834 0.0031275682 0.009803617
-0.0072088516 -0.008443445 0.012515744 -0.009690005 -0.003069542 -0.0013973798 -0.0062678154 0.014354448
0.007767955 -0.0037496954 -0.017891211 0.005277192 -0.007975874 0.005409145 -0.00832406 -0.012413575
0.009784976 0.0021631066 0.011218073 0.008712977 0.020302184 -0.016702535 -0.012565507 0.014357494
0.016119026 -0.0041402015 -0.01029314 0.012692983 -0.01422455 0.0019083257 0.016856253 -0.014075442
-0.013588835 0.011071151 0.0052065616 -0.022794079 0.01244722 0.0017293018 -0.008360278 -0.0062045637
-0.012230099 0.019065171 0.0090393815 -0.007759536 -0.006749125 -0.0077554323 -0.010410941 0.006572485
0.013680134 -0.008894683 0.011173526 -0.008615694 0.0043594935 0.0063798814 0.0017969261 -2.6607238e-05
0.011941454 0.0065735755 0.009086529 0.012362878 0.011747663 0.016515011 -0.007994836 -0.011791452
-0.0024374581 0.009033443 0.0049478454 0.02047892 0.02053711 -0.013234877 0.009604623 -0.00522978
0.0026810563 0.0076449993 0.008850123 0.001332177 0.010814182 0.020190824 -0.023912016 0.010846326
0.009966351 -0.005394969 -0.021631349 0.00012215067 -0.02665722 -0.007281011 0.008819318 -0.0042365817
-0.008400643 0.0028957424 0.013759146 0.0033458637 0.0036185472 0.012299695 -0.0126192095 -0.0008252589
-0.009331966 -0.0065057855 0.009326967 0.0087811 -0.021758998 0.019277513 0.012606424 -0.012125326
0.010093053 0.0054825456 0.001803222 -0.009816107 0.02166067 0.011500692 -0.010467346 0.014207778
-0.010426844 0.012357478 -0.0024696516 0.00600478 0.007103636 0.013851859 0.00802892 0.020610522
0.010064622 0.024582822 0.013785346 -0.005934408 -0.011202046 0.009169048 0.01001051 0.012335284
00000000: bae4 b3bc e6f8 e5bb 7f07 973c dc17 03bc
00000010: 14e6 1abc fb35 1b3c 88f3 2e3c 955f 963b
00000020: 7d44 03bb c75a b93c f4a4 a9bc effe bc3c
00000030: f65f 513c 2c3d 89bc 37d9 7639 843e 063c
00000040: 33db 2abc 22e3 1ebc bec1 8a3c be58 3a3c
00000050: 0f05 17bc b796 59bc 10fc 9dbc 65ea 9839
00000060: 1b19 32bc 142d 3fbb cc0b 233b c1da 0b3c
00000070: 70c2 bd3b 534c b2bb f799 b4bc af9b 3ebc
00000080: c450 0cbc e02e 0c3c ae59 803c 36ba 2d3c
00000090: d2cb 23bc 0527 94bb ff62 3bbc 04cb 1cbc
000000a0: 751d aebc d037 3abc dbaf 1e3c 35c5 abbc
000000b0: f688 493a 216c 453c 2a93 1abc 4753 b93b
000000c0: 3830 2fbc 2efc 26bc 5136 9dbb 6902 f23b
000000d0: 68d7 7a3c 191f c8bb 508c 9e3b 5c59 8abc
000000e0: f805 123c dc3f 8bbc 2f72 01bc 8a60 bd3b
000000f0: c868 a53b 478e c5bb dede 643b 8b64 55bc
00000100: a541 9b3a c664 a5bc 47f5 f13b 2175 e3bc
00000110: f55a 813c 9e16 d53b 6c0c 1a3c 2002 733c
00000120: 26a9 da3b 8f9a 84bb d0e3 83bc 784a 1ebb
00000130: c58c 5e3b 4904 813b 0272 2d3c f5f1 19bc
00000140: 2e3c 963b 1208 213c d99d e1bb f7a8 023b
00000150: 7b0f 91bc f135 e3bb 503d 8fbb c5f7 48bc
00000160: 5b1c 9d3c cf2a 32bc eed7 1c3c b8b8 ae3a
00000170: f24c 87bc b7b0 94bc 0aa1 72bb 8b74 883b
00000180: 9e85 343c 0f86 c93b 0350 b6bb 356d ea3b
00000190: 29ea 34bb 9d50 113c b10c 983c 2641 ad39
000001a0: ea08 e43a b5c6 89bc 739f 3cbb 633c bfbb
000001b0: de92 c53b f312 133b c9f4 803b b23d 323c
000001c0: 9794 72bc 802a 453c eee1 1bbc aa9d 123c
000001d0: 28b3 503b 4ede d6bb df35 cbbb fd3e 33bc
000001e0: aa73 67bb ae2b e53a 9cf2 463c 1c69 22bc
000001f0: 46ac dbbc a0a4 d33b e3f7 4c3b 5a9f 203c
00000200: 3b38 ecbb 6056 0abc d60e 4d3c d4c2 1ebc
00000210: 5f2a 49bb 4928 b7ba 3f62 cdbb eb2e 6b3c
00000220: 548a fe3b 73bd 75bb 9790 92bc 4cec ac3b
00000230: 3dad 02bc 323f b13b a361 08bc 4f62 4bbc
00000240: 2a51 203c e8c2 0d3b 02cc 373c e0c0 0e3c
00000250: c450 a63c c1d3 88bc 8edf 4dbc b23b 6b3c
00000260: 0c0c 843c 87aa 87bb 8fa4 28bc 3bf6 4f3c
00000270: 160e 69bc c920 fa3a 2016 8a3c af9c 66bc
00000280: b4a3 5ebc c663 353c ce9b aa3b a6ba babc
00000290: 6def 4b3c bda9 e23a 8cf9 08bc a74f cbbb
000002a0: c160 48bc 902e 9c3c ea19 143c b543 febb
000002b0: c427 ddbb 4821 febb a792 2abc 005e d73b
000002c0: a422 603c 01bb 11bc 2a11 373c d728 0dbc
000002d0: 15da 8e3b 530e d13b d686 eb3a 9c32 dfb7
000002e0: 17a6 433c 2667 d73b aadf 143c ab8d 4a3c
000002f0: 4579 403c 7d4a 873c c6fc 02bc ef30 41bc
00000300: c3bd 1fbb 0201 143c 8921 a23b 68c3 a73c
00000310: 713d a83c 19d7 58bc b55c 1d3c 935e abbb
00000320: a9b4 2f3b e782 fa3b 1b00 113c 719c ae3a
00000330: f82d 313c 3a67 a53c 22e3 c3bc cab4 313c
00000340: e849 233c 48c8 b0bb 3a34 b1bc 9215 0039
00000350: 3e60 dabc 8c95 eebb e77e 103c 06d3 8abb
00000360: daa2 09bc 7fc6 3d3b 0b6e 613c 4746 5b3b
00000370: 2625 6d3b a984 493c cdc0 4ebc 3056 58ba
00000380: 1ae5 18bc 7c2e d5bb 23d0 183c 9ade 0f3c
00000390: ed3f b2bc e0eb 9d3c 2d8b 4e3c 4ea9 46bc
000003a0: 555d 253c eda6 b33b 175a ec3a bdd3 20bc
000003b0: b871 b13c 666d 3c3c 3b7f 2bbc bdc7 683c
000003c0: 5ad5 2abc 0577 4a3c e1d9 21bb bfc3 c43b
000003d0: 9ec5 e83b e8f2 623c bb8b 033c 66d7 a83c
000003e0: 16e6 243c ea61 c93c efdb 613c 6c75 c2bb
000003f0: c988 37bc c639 163c 1f03 243c ee19 4a3c

linear2.weight f4 [120, 256]
0.054008055 -0.00028445382 -0.037121963 -0.04406977 -0.044620886 -0.0785337 0.017864319 -0.045638777
-0.009415298 -0.07896599 0.087895244 -0.016170325 -0.0154936565 0.08010704 -0.05441645 0.041997995
0.019321851 -0.019076103 -0.073816136 -0.0029675085 -0.0071373656 -0.024168381 0.030579282 0.0051236874
0.083178334 -0.06370685 -0.029542355 0.0826391 0.039451074 -0.05692984 0.037243217 -0.004203485
0.0148318205 0.08241115 -0.02621445 -0.011778112 -0.021716598 0.012680448 -0.052031465 -0.075082146
0.035355307 0.07792679 0.021300144 0.04399817 0.0026890398 0.0138071105 -0.059827004 0.048380673
-0.09390172 0.0042725787 -0.06920293 -0.059313677 0.017711254 0.0016245743 0.0016605943 0.040822744
0.039017584 0.026141295 -0.019043481 0.025617238 -0.00937164 -0.020240026 0.052064866 -0.042053055
0.048008587 0.007683444 0.02472376 0.03004243 0.023295952 0.031020518 -0.025775094 -0.009796059
0.022192113 -0.05501287 -0.025476664 -0.058522183 0.05856404 0.05256877 0.029452503 -0.058400128
0.026405359 -0.0071609337 0.042884488 0.058779504 0.07700263 -0.053639695 -0.007970533 -0.024834014
-0.038938012 -0.096474305 0.05891689 0.010996401 0.04722713 0.0689922 0.060351383 0.038760778
-0.022399988 0.085246 0.01033335 -0.018644128 0.0012175336 0.043476257 -0.04267189 -0.014618717
-0.00024481092 0.056296997 0.011601294 0.06859664 -0.0072169392 0.06964751 0.06683399 -0.020932835
0.023795431 -0.06699965 -0.055669986 -0.033090226 0.059296336 -0.035050012 -0.0052579683 -0.063646354
0.0011651242 -0.04412835 0.054056987 -0.050457064 0.0062392973 0.061197754 0.05631293 0.046681263
-0.031828836 -0.008428264 0.022726484 -0.072756924 -0.048397552 -0.041755423 -0.038070016 0.048500773
-0.021289445 0.0053787907 -0.023463706 0.03678125 0.038573258 0.009532391 0.00988639 0.019179553
-0.059493955 0.018428741 0.047607213 -0.00084632216 -0.013285299 0.04816864 0.082419135 -0.011119229
-0.0830866 -0.024090445 -0.00047085798 0.08671888 -0.046041485 -0.02758876 -0.048386823 -0.06422979
0.0626666 0.08638846 0.08437113 0.080319084 0.04169009 -0.04224558 -0.04895984 0.06985052
-0.069265366 -0.06541914 0.07379915 -0.013460336 -0.052994747 -0.04437106 -0.045478605 0.024191963
-0.048478436 -0.031665877 0.033734515 -0.018057873 -0.0034508912 0.017553156 0.050172992 0.005366594
0.009841411 -0.028847039 -0.0029654761 0.015351849 -0.05972353 -0.039467454 -0.06617116 -0.04125948
0.004605893 0.06055068 0.02765853 -0.075601615 -0.06025351 0.07500183 0.043397933 -0.026650103
0.034284286 0.05329497 0.07774655 -0.018498657 0.0911985 -0.03763941 0.032623235 -0.07071482
0.06926489 -0.03182607 0.052113727 -0.005389737 0.029116903 0.04007769 0.011470416 -0.01484883
-0.028144356 0.063014604 -0.0562436 -0.056035478 0.05162213 0.015130823 0.02981444 0.067859665
0.0733926 -0.06914942 0.08142869 0.022945225 0.02144806 -0.070789345 0.037845053 0.03074804
0.052340854 0.022946104 0.01975164 -0.03673026 -0.07729738 0.048468918 -0.06760651 -0.0268576
-0.052907035 -0.06912255 0.047377244 0.053736854 0.039521057 -0.06981578 -0.047938507 -0.016947655
-0.08188052 -0.030939382 0.018019356 -0.07808213 -0.095725976 0.00826172 -0.074339546 0.020892529
00000000: 8d37 5d3d bf22 95b9 330d 18bd 8182 34bd
00000010: 64c4 36bd 47d6 a0bd 3158 923c baef 3abd
00000020: 9f42 1abc ecb8 a1bd 6c02 b43d a177 84bc
00000030: 1bd9 7dbc 290f a43d c9e3 5ebd 1706 2c3d
00000040: dc48 9e3c 7d45 9cbc ea2c 97bd 887a 42bb
00000050: 90e0 e9bb c5fc c5bc 6781 fa3c 9be4 a73b
00000060: 6759 aa3d bd78 82bd cf02 f2bc b03e a93d
00000070: 7397 213d 442f 69bd 588c 183d 63bd 89bb
00000080: 2a01 733c 2dc7 a83d b0bf d6bc fbf8 40bc
00000090: 02e7 b1bc a7c1 4f3c f21e 55bd abc4 99bd
000000a0: bad0 103d 1598 9f3d a47d ae3c 6d37 343d
000000b0: 9a3a 303b 3837 623c 290d 75bd d02a 463d
000000c0: 8c4f c0bd fd00 8c3b 44ba 8dbd e6f2 72bd
000000d0: 3117 913c abef d43a 4ca8 d93a c035 273d
000000e0: e7d0 1f3d 4526 d63c 1301 9cbc 3edb d13c
000000f0: 828b 19bc 69ce a5bc f841 553d d33f 2cbd
00000100: a7a4 443d 66c5 fb3b 7c89 ca3c 8b1b f63c
00000110: 27d7 be3c be1e fe3c 4a26 d3bc a67f 20bc
00000120: 3ccc b53c 2d55 61bd 70b4 d0bc f5b4 6fbd
00000130: d9e0 6f3d 5a52 573d 6046 f13c f934 6fbd
00000140: 0d50 d83c 44a6 eabb a5a7 2f3d c7c2 703d
00000150: 8eb3 9d3d 4cb5 5bbd d796 02bc b470 cbbc
00000160: 777d 1fbd 5294 c5bd d652 713d 402a 343c
00000170: 3c71 413d c84b 8d3d 0333 773d 9fc3 1e3d
00000180: 2e80 b7bc 7495 ae3d 364d 293c 92bb 98bc
00000190: a695 9f3a 2914 323d b8c8 2ebd 5883 6fbc
000001a0: f759 80b9 ae97 663d 5b13 3e3c 657c 8c3d
000001b0: 137c ecbb 5ba3 8e3d 42e0 883d 567b abbc
000001c0: a3ee c23c 1d37 89bd 3606 64bd 9e89 07bd
000001d0: b7e0 723d 9a90 0fbd 094b acbb 0559 82bd
000001e0: 15b7 983a eebf 34bd dc6a 5d3d 11ac 4ebd
000001f0: 0573 cc3b 7faa 7a3d 63a8 663d da34 3f3d
00000200: f45e 02bd b416 0abc e42c ba3c 9501 95bd
00000210: 833c 46bd bc07 2bbd 4eef 1bbd bfa8 463d
00000220: 3467 aebc 9140 b03b f536 c0bc f0a7 163d
00000230: fefe 1d3d bf2d 1c3c 86fa 213c 701e 9d3c
00000240: efaf 73bd dff7 963c c8ff 423d b8db 5dba
00000250: 95aa 59bc 7b4c 453d 5dcb a83d 6d2d 36bc
00000260: 4f29 aabd 5359 c5bc 7ddd f6b9 ab99 b13d
00000270: ff95 3cbd d301 e2bc 4331 46bd e88a 83bd
00000280: 5957 803d 6fec b03d c5ca ac3d 557e a43d
00000290: 3ac3 2a3d b409 2dbd 1d8a 48bd ca0d 8f3d
000002a0: 00db 8dbd 78fa 85bd 0224 973d be88 5cbc
000002b0: 0511 59bd 6ebe 35bd c647 3abd 392e c63c
000002c0: 5391 46bd 14b4 01bd 342d 0a3d 1bee 93bc
000002d0: 5928 62bb a3cb 8f3c 3282 4d3d 41da af3b
000002e0: df3d 213c a050 ecbc 6f58 42bb 5286 7b3c
000002f0: a9a0 74bd a0a8 21bd bf84 87bd b3ff 28bd
00000300: 08ed 963b fd03 783d 2494 e23c 05d5 9abd
00000310: 62cc 76bd 8f9a 993d 08c2 313d 5151 dabc
00000320: ae6d 0c3d d44b 5a3d 9539 9f3d 7f8a 97bc
00000330: 47c6 ba3d c82b 1abd f19f 053d eed2 90bd
00000340: c0da 8d3d 0e5c 02bd 3475 553d 649c b0bb
00000350: 9286 ee3c 8128 243d 69ee 3b3c 8248 73bc
00000360: fe8e e6bc cd0d 813d b05f 66bd 7585 65bd
00000370: ba71 533d 45e7 773c 6a3d f43c 02fa 8a3d
00000380: dc4e 963d 369e 8dbd 16c4 a63d a0f7 bb3c
00000390: d8b3 af3c 01fa 90bd 6a03 1b3d 50e3 fb3c
000003a0: 5d63 563d 78f9 bb3c 31ce a13c 7872 16bd
000003b0: 174e 9ebd 5887 463d 4875 8abd 7804 dcbc
000003c0: 0cb5 58bd 2090 8dbd a40e 423d 2d1b 5c3d
000003d0: d5e0 213d 93fb 8ebd 2b5b 44bd cfd5 8abc
000003e0: f9b0 a7bd 9674 fdbc 549d 933c 86e9 9fbd
000003f0: fb0b c4bd 2a5c 073c 553f 98bd cf26 ab3c

linear2.bias f4 [120]
0.01742512 -0.0068085073 0.015075622 -0.012039744 0.026159933 -0.0108160125 0.030339282 -0.008771891
0.026576484 -0.008204809 0.023587583 -0.018476667 0.029082146 -0.011618567 0.018314341 -0.010498456
0.020305742 -0.009082575 0.024367046 -0.012565769 0.021251496 -0.0059206667 0.02299806 -0.012854557
0.034096092 -0.007978769 0.028237354 -0.008519713 0.026679084 -0.01734285 0.021368291 -0.01621577
0.021802824 -0.0060047153 0.032216277 -0.01563315 0.025018472 -0.010331503 0.017596932 -0.019066125
0.020039542 -0.013301593 0.02453207 -0.0074333935 0.02510927 -0.009257489 0.035454787 -0.008283356
0.034107868 -0.010979885 0.02592495 -0.0045992034 0.02939218 -0.010569796 0.026125183 -0.010040061
0.025823275 -0.0112998765 0.01638283 -0.011736424 0.029023392 -0.015899664 0.018274553 -0.0049919314
0.015541745 -0.014556481 0.02284786 -0.013909891 0.026141109 -0.010014739 0.033174824 -0.0141770225
0.033219043 -0.0199333 0.027867718 -0.0070579834 0.022252114 -0.0056579006 0.024607325 -0.0141867865
0.03355446 -0.00771952 0.022127856 -0.009299087 0.027807072 -0.008786897 0.02681746 -0.011407555
0.020893916 -0.012830829 0.02762468 -0.009022815 0.020488411 -0.006468102 0.021549879 -0.016934108
0.02494543 -0.00832229 0.028286966 -0.0041227187 0.019507615 -0.009695958 0.018165663 -0.009280338
0.026585015 -0.014377968 0.018096993 -0.006637042 0.029645933 -0.0062987693 0.0234263 -0.017543113
0.019011622 -0.015942873 0.02676269 -0.009734419 0.033740867 -0.019926086 0.014646003 -0.014330616
00000000: 20bf 8e3c e619 dfbb beff 763c 5942 45bc
00000010: 5b4d d63c a535 31bc 168a f83c fab7 0fbc
00000020: edb6 d93c 776d 06bc bf3a c13c 615c 97bc
00000030: ae3d ee3c cd5b 3ebc f507 963c b701 2cbc
00000040: 3a58 a63c 15cf 14bc 669d c73c a8e0 4dbc
00000050: 9e17 ae3c 2702 c2bb 6d66 bc3c eb9b 52bc
00000060: 58a8 0b3d 62b9 02bc 0652 e73c 4496 0bbc
00000070: 188e da3c 9812 8ebc 8e0c af3c efd6 84bc
00000080: d69b b23c 34c3 c4bb 37f5 033d 1711 80bc
00000090: 8af3 cc3c 7745 29bc 7127 903c 9030 9cbc
000000a0: f729 a43c edee 59bc 7bf7 c83c d393 f3bb
000000b0: f5b1 cd3c b9ac 17bc 0a39 113d eab6 07bc
000000c0: b1b4 0b3d fae4 33bc 9060 d43c eab4 96bb
000000d0: dec7 f03c f02c 2dbc 7b04 d63c 117f 24bc
000000e0: 558b d33c 1e23 39bc 4935 863c 214a 40bc
000000f0: 77c2 ed3c 0340 82bc 84b4 953c 5b93 a3bb
00000100: cea2 7e3c 4e7e 6ebc 6f2b bb3c 50e6 63bc
00000110: e125 d63c dc14 24bc 53e2 073d be46 68bc
00000120: b110 083d 294b a3bc d74a e43c a846 e7bb
00000130: 114a b63c e965 b9bb 4d95 c93c b26f 68bc
00000140: 6770 093d 07f4 fcbb 7a45 b53c 335b 18bc
00000150: a8cb e33c ebf6 0fbc 4ab0 db3c c1e6 3abc
00000160: b829 ab3c 6638 52bc 274d e23c 6ed4 13bc
00000170: 50d7 a73c 5ff2 d3bb 5f89 b03c 66b9 8abc
00000180: 5c5a cc3c 375a 08bc 11ba e73c df17 87bb
00000190: 6fce 9f3c ccdb 1ebc 28d0 943c 8f0c 18bc
000001a0: d1c8 d93c 9291 6bbc 2540 943c 8b7b d9bb
000001b0: 07dc f23c e865 cebb 83e8 bf3c 93b6 8fbc
000001c0: 43be 9b3c a19a 82bc 6e3d db3c 1d7d 1fbc
000001d0: dd33 0a3d 083c a3bc caf5 6f3c f6ca 6abc
