models/austin_mlp.pt (torch, 228255 bytes, 4 tensors)

linear.weight f4 [256, 100]
00000000: 5b60 7dbd b012 d13d 422e 353c ce32 923d
00000010: eb92 7fbd 5ae4 6cbd fb96 20bd ae97 8fbc
00000020: 8554 7ebd 28c6 d83c 3eaa 45bc 035d 62bd
00000030: dd54 58bd 6e1f b3bd aeab a83c 4a0a b93d
00000040: 8f37 173b 7598 c63d 09da 923d ea3f ba3d
00000050: ccff 403d da65 93bc 2fee 27bd cd79 6fbd
00000060: 9806 bbbd 0b57 763d 608c c33c bd4d 90bd
00000070: 9647 4ebb 4af9 87bd fe65 b63c 1320 a9bd
00000080: d7f7 08bc d56e 1f3d 83af cebd fac6 a03d
00000090: f8ec 763d 29da 85bc cbcd ae3d 1f19 9cbd
000000a0: cd2a 523d 4f2a b9bc 9105 593d f229 b9bd
000000b0: 3cb2 913d bba8 70bd 7b62 2f3d aa90 a4bc
000000c0: c705 9ebd 9d28 793d f8f5 903d e57c b63d
000000d0: 540d e73c 7783 0e3c 43af 84bd 0aaf 443d
000000e0: 21d8 bdbc ead0 bc3d 5f5c b73d 9a58 d83a
000000f0: c8be 133d 5f3f 833c 3af6 0b3d 2f83 023d
00000100: e694 53bd e929 1ebd 5ca6 fb3b 8b51 26bd
00000110: 9e54 183d a431 b7bb c0d9 523c e140 f6bc
00000120: 4f8d 8bbd 852d 6c3b d6e1 023d 8be1 b73c
00000130: 3501 3dbc 9f2d 9cbd fa07 3dbd 1c03 28ba
00000140: 071f 923c 489f 03bd 87db b53d 1c22 d5bd
00000150: 6e1c 08bd b543 5e3c eccd a43d 42d6 943d
00000160: b56f b23d fde8 d83c c11e 863d 9d5e a63a
00000170: 4ee9 893d c6be fd3c 653c 0dbd c638 2a3c
00000180: c707 ea3d ea77 28bc 917c e43d 6164 f43c
00000190: dfa7 bfbc af99 8e3d 9738 0b3d 4cd9 dd3b
000001a0: f60e db3d 2f62 93bc afd0 363d b99f 23bd
000001b0: 57a6 223d 1378 063c f333 713d 9100 d3bb
000001c0: 5b2e d23d 0fa6 1dbc fc83 b93d 9cb2 56bd
000001d0: b363 8c3d f3a9 53bc 23eb 813d 0d02 43bd
000001e0: b8e7 19bc ac0b a3bd 06b4 68bc 5c9c a93d
000001f0: d467 b63d b0f5 afbd ed25 853d 6364 abbd
00000200: 8957 2cbd 2811 8b3a b1b9 83bd b8e8 d93d
00000210: efae b43d 350a 273d cf40 543d d6bc 90bc
00000220: a2e3 653d 9978 33bd 2504 af3b 31ba 0bbd
00000230: 37bb 7e3c bb54 1e3d 4084 8cbd 7a9c c33d
00000240: f863 8abd 264c 8b3b 2e04 45bd b72f dcbc
00000250: b984 01bd 7410 2d3c c2e7 bc3d e37a a3bd
00000260: 7ec7 71bc f63b c1bd 7ca3 a03d b796 ee3c
00000270: fe24 473d cb19 b13d 953a 8ebd f0c8 5d3d
00000280: bf59 633d 7d32 62bc 723a 91bd 7189 99bd
00000290: bbeb 99bd e47a ab3d b33b 23bd 7d6b 9bbd
000002a0: eaed e23b ba15 bb3d 134d eb3a c172 4abd
000002b0: 487e 6fbd 401c 4c3d eeaf 84bb eb36 4f3d
000002c0: e4d2 003d bbca 873d ae0d 6dbd 1af0 e23c
000002d0: e32b 2dbb ea27 7fbd 5cbb 3bbd 7818 59bc
000002e0: 1e44 99bd 7c4a e93c 3b0e 18bd b322 84bd
000002f0: fa4e 33bd 9196 cd3c 1b97 efbc 30cc 3c3d
00000300: 02ae a5bc 6bfb 99bd a087 aebc fbb0 443c
00000310: bb25 d7ba 70ec a23d 8440 52bd ecde c0bd
00000320: c775 7bbc 125b a7bd eeb3 e8bd 38ed 8b3b
00000330: 342f b9bd 628f 41bd fae9 c8bc 176f 3ebd
00000340: a4a3 21be 913e 61bb d6b6 823c fa45 88bd
00000350: a64c 91bc e0dc f2bd ef04 1bbe adb0 d0bd
00000360: 9f56 aebd 0ece d53b ad1d 85bd 5246 56bd
00000370: 104a 15be de6d 8cbd 2b6c bebd 035c e23c
00000380: b7d5 fbbd b605 bbbd 0dc1 ddbc 1271 d0bd
00000390: 4d0b 5ebd 3c33 ee3c c0a7 183d dec2 f8bd
000003a0: 041b d4bd ec77 a7bc 011c babd 44f0 ac3b
000003b0: 2245 f4bd fd2e 243d e19e 23bd 49b6 f53c
000003c0: 7b77 18be eb96 b8bd e2f2 8bbc 13ea 6a3d
000003d0: ebb3 94bd cab2 51bd d1ac 0bbe ab83 2d3d
000003e0: 2fc5 04be 3e92 d7bc 5f03 03be ddb4 a1bd
000003f0: 3009 c8bd 3991 b5bd d40d ecbd af1d b1bd
-0.06185947 0.102086425 0.011058392 0.071385965 -0.06239597 -0.05783496 -0.039206486 -0.017528381
-0.062092323 0.026461676 -0.012064515 -0.055264484 -0.052815307 -0.08746229 0.020589676 0.090351656
0.0023073887 0.096970476 0.07170493 0.09094222 0.047118947 -0.017992903 -0.040998634 -0.058465768
-0.09132117 0.060141604 0.023870647 -0.070460774 -0.0031475774 -0.06639345 0.02226543 -0.08258071
-0.008359871 0.038924057 -0.1009207 0.07850452 0.060284585 -0.016339378 0.08535346 -0.07621979
0.05131035 -0.022603182 0.052983824 -0.090412036 0.07114074 -0.058754664 0.042818528 -0.020088512
-0.07715946 0.060829747 0.07078165 0.089105405 0.028204598 0.008698336 -0.06478741 0.048018493
-0.023174347 0.09219535 0.08953165 0.0016505898 0.036070615 0.016021429 0.034170367 0.031863388
-0.051655672 -0.038614187 0.0076797437 -0.04060511 0.037190072 -0.0055906344 0.012869298 -0.030060234
-0.06814062 0.0036037874 0.031953655 0.022446414 -0.011535932 -0.07625889 -0.046150185 -0.0006409155
0.01783706 -0.032134324 0.08879762 -0.104068965 -0.033230238 0.013565947 0.08047089 0.07267429
0.08712713 0.026478285 0.065488346 0.0012692992 0.067339525 0.030974757 -0.034481425 0.010389512
0.11427265 -0.010282496 0.11156572 0.02983302 -0.023395477 0.069629066 0.033989515 0.0067702886
0.10696213 -0.017991154 0.04463261 -0.039947245 0.039709415 0.008207339 0.058887433 -0.0064392765
0.10262748 -0.009622111 0.09058377 -0.05241643 0.068549536 -0.012918937 0.06343677 -0.047609378
-0.009393625 -0.079612106 -0.014203077 0.08281776 0.089065224 -0.08591783 0.065013744 -0.083687566
-0.042075668 0.0010609971 -0.06431902 0.10640091 0.088224284 0.04078122 0.05181962 -0.017668169
0.05612529 -0.043816183 0.0053410702 -0.034113113 0.015547565 0.038655024 -0.06861162 0.0955133
-0.06757349 0.004251021 -0.04809969 -0.026878221 -0.031620715 0.010563005 0.09223892 -0.07982423
-0.014757035 -0.09435265 0.07843682 0.0291246 0.048619263 0.08647498 -0.069447674 0.054146707
0.05550551 -0.013805983 -0.07091226 -0.07496918 -0.07515665 0.08373049 -0.039851855 -0.07588861
0.006925334 0.091350034 0.0017952047 -0.049425844 -0.05847004 0.04983163 -0.0040492928 0.050589483
0.03145112 0.06630465 -0.057874374 0.02770238 -0.0026423864 -0.062293924 -0.045832977 -0.013250463
-0.074836954 0.0284779 -0.037122946 -0.06451931 -0.04377649 0.02509621 -0.029246857 0.046093166
-0.020224575 -0.07518657 -0.021304905 0.012005086 -0.0016414443 0.07955253 -0.05133106 -0.09417519
-0.0153479045 -0.08171667 -0.11362444 0.004270222 -0.090422064 -0.04725588 -0.024525631 -0.046492662
-0.1578508 -0.0034369568 0.015956324 -0.06653972 -0.017736744 -0.11858535 -0.15138601 -0.10189948
-0.085126154 0.006524808 -0.06499801 -0.052313156 -0.14579034 -0.06856893 -0.09297975 0.027631765
-0.12296622 -0.09131949 -0.027069593 -0.101778165 -0.054209996 0.029077165 0.037269354 -0.12146543
-0.10356715 -0.020442925 -0.090873726 0.0052776653 -0.119272485 0.040083874 -0.03994644 0.029994147
-0.14889328 -0.0901316 -0.017083589 0.057352137 -0.07260879 -0.051195897 -0.13640143 0.042361896
-0.12965845 -0.02631485 -0.12794255 -0.07895825 -0.097673774 -0.0886559 -0.11526075 -0.0864824

linear.bias f4 [256]
00000000: 8137 54bf 008f 7dbc 7ee4 7e3e 11d9 8ebf
00000010: 6233 283c c931 59bc 5505 303c 1ad1 f83a
00000020: f803 133d 64bc 48bc f251 c23c 2f98 113d
00000030: c1e6 95bc 2d33 cdbc 3ec8 05bc 3eb3 85bc
00000040: 1494 4bbc 9d2b 27be 4236 a0bc d374 183d
00000050: a445 26bc aea4 f5bb 9f1d babc b0d0 b2bf
00000060: ca47 99bc bd67 eebb 1b7f aabc b28a 9a3c
00000070: d559 65bf a104 173b 82bf be3c 6471 803c
00000080: dd85 083c d435 9cbc b649 e43e e9b2 0bbd
00000090: 53ed b7bc 3f2c 8a3c 2181 a03c f236 8c3e
000000a0: f17b f2bc 5987 9dbc 5df0 62bd 4f65 d33b
000000b0: 11cb 323c d5db 09bc 22b5 733c 8263 be3d
000000c0: 31aa a3bc d3c1 cc3e 7a6d bdbc 5c07 babe
000000d0: 1be3 f73a a20c 86bc d5ab e4bc ce67 203c
000000e0: a11b 6fbc eda7 6dbb d46e 0c3e 030e 80bc
000000f0: d665 a83e accd 56bc 986a 453b b05f 5dbd
00000100: d666 af3c 9f3c 043c 7d8c f9bd afe9 7fbc
00000110: c547 f73c fdec cb3b b374 493d 64de 723f
00000120: 8de4 0c3d 7a76 6f3c 413e dfbc 74c7 24ba
00000130: 754d 983d 6d73 df3c 3f54 a9bb 3d56 013c
00000140: 09ec 023d 710a 84be 89df 4cbc 15d7 083e
00000150: e0e9 1ebf 6ed1 f3bb cca8 c5bb b652 9ebc
00000160: 3f60 c63c 3759 00bd ef64 313c 102f 8abb
00000170: 3750 7bbf 56b3 813d 8765 01bb 6858 f8bc
00000180: 9578 c83b 9fca 90bc 83d0 8c3a 5862 e63d
00000190: b9f0 1ebf 2ffa e33b 83f7 013c 5e68 35bc
000001a0: ebfd 80bc 7a22 39bc 627b f23a fb23 3e3a
000001b0: bdb2 54bc 3888 e83e dab7 423c 7803 8b3f
000001c0: f12c a43c 8a8e b83c 0feb c93c e7b3 173c
000001d0: d4c0 5cbe f3d7 c13c b68b 5b3d 7139 593f
000001e0: 3425 3f3c 7cd9 b43b caad 8bbc d302 d03c
000001f0: 2ce3 763c 801c 413f 1a5a 353d 8081 203c
00000200: e79c 6a3f 31e7 96bc 2236 863c eb0e 27bc
00000210: 8599 cebc feed c63e 7cfc ccbe d6d5 37bc
00000220: 1749 ac3f d386 9a3c 5a8c b0bc 8e14 65bc
00000230: d3f7 9b3b 2e5b 35bf bb45 943c b337 20bf
00000240: 4045 ecbb b3e0 013c 4def db3d 254b 453e
00000250: 1e63 9c3c e80a cabb d985 8d3f b404 cb3c
00000260: 5ff0 b13b 8982 e5be c859 983f 5ad4 d73b
00000270: 6e71 5ebe 25be 0bba 5f86 4dbb 8cad fe3e
00000280: 257e 4ebc 3833 6d3c 0640 bfbc 60b1 aa3c
00000290: ac88 ff3b f8d8 bd3c bc3f b7bb 6d54 dcbc
000002a0: 32b3 c33e 4263 f5bc 8e8a 873c 7cff 6b3d
000002b0: c63f c33c b3c0 c63f c225 80bf 77ff 0b3f
000002c0: 5d18 763c cd23 18bc a94b 3ebc 7814 55bc
000002d0: 3215 8a3c e0a7 13bd fb1b a73c e0b0 1cbf
000002e0: dc29 b7bd 5e93 bf3b a60d c73a 3192 e13e
000002f0: 6588 edbc f552 a33c a3b5 67bc 4ee4 98bc
00000300: 0658 6a3e 77d9 95bb e9cc 683c 4b69 10bc
00000310: 81d9 9eba de52 bcbe 9aec fabe 4416 903e
00000320: 74fd 06bc f032 72bc b872 09bc 4915 313c
00000330: f633 913f 5048 e2bb 9714 ebba 15f6 a33b
00000340: 934c 74bf 7457 bf3c b288 1c3c 75c1 a4bc
00000350: de0c 86bc ac09 84bc 67c0 aebe 5dc5 6f3f
00000360: e917 573a 9116 96ba 0ae5 2cbe 013d 823c
00000370: 7853 b63d 7549 b13f c73e fe3b 8fd5 e2bd
00000380: 6fb6 dabb bba5 d83c 6d62 60bc 60c5 2bbf
00000390: 4b2c a1ba 61ab cfbc 9538 203f 1601 033f
000003a0: 89ae 2d3c da3c 833b 3dbc 4dbc 222f 03b9
000003b0: 9ec3 a23b 6d37 ad3c 7a19 36bc bb29 dfbc
000003c0: b5f4 4a3e 0ce0 60bc 9e13 cc3d 16bc 27bc
000003d0: 22de a73e 8cd0 51bc 21ab 6dbc 9fe1 9cbf
000003e0: b83e d0bb 00b5 a93c 90ee 803d 70c8 e63b
000003f0: 3602 75bc cad5 8dbc 444a 3a3c b4d8 d13b
-0.8289719 -0.015475988 0.2489185 -1.1159993 0.010266157 -0.013256499 0.010743459 0.0018983216
0.035892457 -0.012251947 0.023720715 0.035545524 -0.018298509 -0.025048817 -0.008165417 -0.01632082
-0.012425441 -0.16325231 -0.019557122 0.037220787 -0.01014844 -0.007496438 -0.022719203 -1.3969936
-0.01871099 -0.00727555 -0.020812562 0.018864963 -0.895902 0.002304353 0.023284677 0.015679069
0.008332697 -0.019068636 0.44587487 -0.03410617 -0.022452032 0.016866801 0.019592823 0.2738567
-0.029600115 -0.019229578 -0.05540501 0.006451286 0.010912673 -0.008414228 0.014874728 0.09296323
-0.019978615 0.39991626 -0.023123492 -0.3633374 0.0018912287 -0.016363446 -0.027913967 0.009790374
-0.01459399 -0.0036263422 0.13714153 -0.015631681 0.32890195 -0.013110559 0.003012335 -0.054046333
0.02141134 0.008071094 -0.12184999 -0.015619679 0.03018559 0.0062233196 0.04918356 0.9487059
0.03439765 0.014615649 -0.027251365 -0.00062858243 0.07436649 0.027276719 -0.0051675136 0.007894096
0.031963382 -0.25789216 -0.012504467 0.13363297 -0.62075615 -0.0074407374 -0.006032085 -0.019326549
0.024215816 -0.031335082 0.010827287 -0.004217036 -0.98169273 0.06333034 -0.0019744353 -0.030315593
0.00611789 -0.017674742 0.0010743294 0.11249226 -0.62086064 0.0069573144 0.007932547 -0.011072246
-0.015746078 -0.011299724 0.0018499906 0.00072532863 -0.012982068 0.45416427 0.011884654 1.0860434
0.020040961 0.022528905 0.024648217 0.009259201 -0.21557933 0.023662543 0.053600036 0.84853274
0.011666585 0.00551909 -0.017050643 0.025391972 0.01506881 0.7543411 0.04427538 0.0097965
0.91645664 -0.018420788 0.016383234 -0.010196428 -0.025219688 0.3885345 -0.4003638 -0.011220416
1.3459805 0.018863117 -0.0215513 -0.013981951 0.0047597676 -0.70842254 0.018099656 -0.6258499
-0.0072104037 0.007927108 0.107390024 0.19266947 0.019090232 -0.006165851 1.1056472 0.024782516
0.005430266 -0.44826153 1.1902399 0.0065865936 -0.21722957 -0.0005330763 -0.003136061 0.4974178
-0.012603317 0.0144775435 -0.023345958 0.020836532 0.007798275 0.023174748 -0.0055923145 -0.026895726
0.38222653 -0.029954556 0.01654556 0.057616696 0.02383412 1.5527557 -1.0011523 0.54686683
0.015020457 -0.009285879 -0.0116147185 -0.013005368 0.01685581 -0.03604877 0.020399084 -0.6120739
-0.08943531 0.005846425 0.0015186563 0.44056848 -0.028995702 0.019937018 -0.014142427 -0.018663552
0.22885141 -0.004573043 0.014209011 -0.008814166 -0.0012119265 -0.36781973 -0.49008638 0.28141987
-0.008239139 -0.014782652 -0.0083891675 0.010808297 1.1343982 -0.006905593 -0.0017935213 0.0050037005
-0.95429343 0.02335713 0.009554075 -0.020111779 -0.016363557 -0.016117893 -0.34131166 0.9366053
0.0008205162 -0.0011450817 -0.16884246 0.01589823 0.08902639 1.3850542 0.0077589485 -0.11075889
-0.00667458 0.026446214 -0.013695342 -0.67098045 -0.0012296526 -0.025350275 0.6258634 0.5117353
0.010600694 0.004005057 -0.012557087 -0.00012510692 0.004967167 0.021144593 -0.0111144725 -0.027241578
0.19819911 -0.013725292 0.09964679 -0.010237714 0.3278666 -0.012806069 -0.014506132 -1.2256354
-0.006355133 0.02071619 0.06295502 0.007042937 -0.01495414 -0.017313857 0.011370245 0.006404007

linear2.weight f4 [120, 256]
00000000: 26d6 ab3c 5814 413d f382 34bb 9b7c bb3c
00000010: 5770 823d 8ace 4d3d 7ba6 623c d9fc db3b
00000020: 4e81 953c 0bb4 84bd 9616 b13c c14e 1abd
00000030: 4b4c 443d 0242 adbc 087f 513d 7ca3 9cbd
00000040: 8f71 73bd 3430 8f3b ebca 38bd e161 3ebd
00000050: 8f22 cabc 6f06 563d 8991 2fbd e78c e33c
00000060: 3571 e9bc 61c5 513d 5ba5 4fbd a987 c23c
00000070: aa76 103c 897c 083c 4bc2 6a3d d163 5e3c
00000080: c238 71bd afa4 593b 26ce 113b c6d9 e5bc
00000090: ba72 96bd 6118 003c 1499 523c 329a 9eba
000000a0: 9bca 8bbd a97d 04bd c8a0 3a3b 0fe5 163d
000000b0: deb3 ac3a 4e47 34bc 4a0c 3c3c a2bc ac3a
000000c0: 7144 443d 5805 8cbb 1913 ac3b 248a 1fbc
000000d0: dec1 d23b fec8 09bd 4377 8cbd 2404 9d3c
000000e0: ef24 3cbd a6f9 cdbc 3214 0fbd 24e7 3e3d
000000f0: 2972 c2bc de21 82bd f38b 5bbd 1cb3 f1ba
00000100: fe42 883c 644d 373b bc19 b7bc df88 a7bc
00000110: 2b52 cd3c 254e 15bc 91ba 2cbd 3916 3f3c
00000120: dc6c 153c 125d 793d f757 dbbc 569c d13a
00000130: 4f06 1d3d 8302 053b 6d4d 03bc d11d fd3b
00000140: 7132 c93c a975 9e3c 4378 4ebd 9c4c efbc
00000150: 7689 1ebb 66cc 823d f6b0 abbc 262f 91bd
00000160: 87d8 5f3d 877c 48bc 8be9 4fbd 0c18 1ebc
00000170: 18c9 36bc 0c85 2dba efc5 06bd 0ac1 0e3d
00000180: 51c8 eebb c86a 91bc d3f7 853d 7fa5 1cbb
00000190: 055d ccbc 0aa9 1a3c 023b 0c3d bd18 9cbc
000001a0: a008 6e3d bdf2 1cbc 8a3c 57bd 7e6e 47bd
000001b0: f882 89bc 9c5b cdbc 743c 503d 7417 9dbc
000001c0: 3538 a73c 8550 923d 1a9b 50bd 653f c33c
000001d0: 0d7b b73c f1f5 843d df4a d73c 1da2 d93b
000001e0: bfcd 8b3d aefa dc3c d3cc 3e3d 5996 dd3c
000001f0: 8265 263d 082d 93bc efb0 173c 974f 3dbd
00000200: e022 9bbc dcc8 84bd db6e ab3c 21dc 96bc
00000210: c64d 13bb 1016 843b a00d 95bc e4f0 86bd
00000220: e19e 7ebc 70a0 993d f17c 273d f286 c5bc
00000230: 6714 5b3c 9ce6 53bc f145 e23c 7fe2 aa3c
00000240: dd0c 65bd d3ba 62bb 214f 0ebd 6786 373b
00000250: 8e3a 50bd 9723 5e3d 5d43 b3bc 2713 653d
00000260: e17f a03c ece3 22bc aff9 a2bc 082c 90bb
00000270: bd6e a53c 7ca6 0fbc 0a49 76bd d257 5e3b
00000280: c749 71bd a5a4 be3a 6e77 8abc b92c 933d
00000290: c4c6 453d f036 3b3b e2a8 3cbd d362 313d
000002a0: 39a8 693b 86f9 e13c 444a e03c 3d61 1f39
000002b0: ff04 923c ba2e b3bc 88df 693c 685f 833c
000002c0: 6e41 7f3d 01f9 6abd bbd5 6ebb f3d3 62bd
000002d0: 6688 e33c 5d8b 153d 039e 63bd 2a6e a03c
000002e0: 60e8 2c39 8b60 883d 319c 563d 7465 e83b
000002f0: 4679 90bd 1afc 823d f0ce 81bc 9560 083d
00000300: caad 1a3b 4825 2b3d fb87 6a3d 941c 7abd
00000310: dbe0 b13c 5101 003c 9684 cebb 8821 b83b
00000320: fc20 7fbd fab4 9fbc b853 49bc 065f 243d
00000330: cb3e 8dbc 9869 623a 4423 6fbc a6f4 e0b9
00000340: b717 b6bc 5f94 cb3c 743e 8d3c 0850 75bd
00000350: 6929 93bd da85 35bd 1e2e d03c 1a4b 85bc
00000360: 9935 283c fc1d 123c 9438 133b 1b16 ba3c
00000370: 9603 78bb 11c1 bbbc 4d5d 823d 6cc1 00bd
00000380: 57d2 91bb 71d1 703d 735b 82bd ae03 a33c
00000390: ffbc 303d 4272 72bc 4fa0 c13a 4a49 b03c
000003a0: 2661 113b aad6 21bd fd88 26bd 340c 4bbd
000003b0: 7d96 8a3d d3fb 963c 9e58 cdbb fd4a 463d
000003c0: 928e 06bc 8437 79bd 60e2 02bd 0edf 93bd
000003d0: 3c70 2c3b 16a6 29bb bf13 8fbd 9d6e 4cbc
000003e0: 194b 2abd 124f 8d3d 99ec 1ebd 7ebf 6f3d
000003f0: 9ced 9abc 9528 f5bc fca8 773d bb50 553c
0.020976137 0.047138542 -0.0027543872 0.022886565 0.063690834 0.0502458 0.013833637 0.0067134914
0.018250134 -0.06479653 0.021617215 -0.03767276 0.04792432 -0.021149639 0.051146537 -0.0764837
-0.05943447 0.00436976 -0.045115393 -0.046480063 -0.024674682 0.05225223 -0.042863403 0.027777148
-0.028496364 0.051213626 -0.050694805 0.023746328 0.008817354 0.008330473 0.0573142 0.013573603
-0.05889202 0.0033209731 0.0022248118 -0.028057944 -0.07346101 0.007818312 0.0128538795 -0.0012100397
-0.06825753 -0.0323464 0.002847718 0.03683954 0.0013176163 -0.0110033285 0.011477539 0.0013178776
0.047916833 -0.004273098 0.0052513 -0.009737525 0.006431802 -0.033638947 -0.06858685 0.019167013
-0.04593366 -0.025143456 -0.03493137 0.04660715 -0.023736076 -0.06354116 -0.053600263 -0.001844022
0.016633507 0.0027969712 -0.022351138 -0.020451007 0.025063595 -0.009112869 -0.04217011 0.011663013
0.009120192 0.060879774 -0.026775343 0.0015992026 0.038336094 0.0020295687 -0.008014065 0.0077245017
0.024560185 0.019343214 -0.05040766 -0.029211335 -0.002419082 0.06386642 -0.020958405 -0.07089071
0.054649856 -0.012236721 -0.050759833 -0.009649288 -0.011156343 -0.0006619252 -0.032903608 0.034852065
-0.007287063 -0.017751113 0.06541409 -0.0023902354 -0.024946699 0.009439716 0.03423596 -0.019054765
0.058113694 -0.009579358 -0.05254797 -0.048689358 -0.016786084 -0.025068097 0.050838903 -0.019176222
0.020412544 0.07144264 -0.050929166 0.02383394 0.022397542 0.06492222 0.026280819 0.00664164
0.06826352 0.026975002 0.046582054 0.02704923 0.04062415 -0.017965809 0.009258493 -0.04621848
-0.018937528 -0.064836234 0.020926883 -0.018415513 -0.0022476777 0.0040309504 -0.018194973 -0.06588915
-0.015540809 0.07501304 0.040890638 -0.024112199 0.0133715635 -0.0129333995 0.027621241 0.020859955
-0.05592047 -0.003459622 -0.034743432 0.0028003694 -0.050837092 0.05423316 -0.021882707 0.05592647
0.019592227 -0.009942036 -0.019894449 -0.00439978 0.020194406 -0.00876772 -0.06012825 0.0033926857
-0.05890825 0.0014544918 -0.016902652 0.071862645 0.04828526 0.002856668 -0.046059497 0.043307137
0.0035653247 0.027584802 0.027379163 0.00015199646 0.017824648 -0.021872867 0.014274485 0.016036704
0.062318258 -0.057366375 -0.0036443311 -0.05537791 0.027775 0.03650986 -0.055570614 0.01958378
0.00016489765 0.06659039 0.05239505 0.0070921723 -0.07054381 0.06395741 -0.015845746 0.033295233
0.0023602122 0.0417836 0.057258587 -0.06106241 0.021713665 0.007812814 -0.0063024266 0.0056192316
-0.062287316 -0.019495476 -0.0122880265 0.040129684 -0.017241856 0.00086369505 -0.01459581 -0.00042906887
-0.022228105 0.024851022 0.017241694 -0.059890777 -0.07185633 -0.044317104 0.025412615 -0.016271163
0.010266685 0.008918282 0.0022464143 0.022715619 -0.0037843934 -0.02291921 0.06365452 -0.03143446
-0.0044501233 0.05879349 -0.06365099 0.019899216 0.04314899 -0.014797749 0.0014772507 0.021519322
0.002218315 -0.03951136 -0.040657986 -0.049572185 0.067669846 0.018430626 -0.0062666675 0.04841136
-0.008212702 -0.06084396 -0.03195417 -0.07220279 0.0026312014 -0.0025886348 -0.06986188 -0.012477544
-0.041575525 0.06899847 -0.038799856 0.05853223 -0.01891213 -0.029926578 0.06046389 0.013019736

linear2.bias f4 [120]
00000000: 12a6 9d3d f194 4bbb a37f 9d3d 1d4d 4abb
00000010: 8c56 9d3d 6ac5 48bb c630 9d3d 875c 47bb
00000020: 9008 9d3d 892a 46bb 7be2 9c3d c283 44bb
00000030: 34bc 9c3d e7d1 42bb 3294 9c3d e325 41bb
00000040: 0e6e 9c3d 0392 3fbb 6b47 9c3d fefb 3dbb
00000050: d320 9c3d 7cb7 3cbb 9ffa 9b3d becd 3abb
00000060: ead4 9b3d cc09 39bb 60ae 9b3d a660 37bb
00000070: cd86 9b3d a0a8 35bb 1d62 9b3d e42f 34bb
00000080: c03c 9b3d 87a8 32bb 6517 9b3d 1ad5 30bb
00000090: 5df2 9a3d fdf3 2ebb f8cc 9a3d 1c54 2dbb
000000a0: 4baa 9a3d 6ee0 2bbb 3d85 9a3d d923 2abb
000000b0: 5f62 9a3d 6580 28bb cd3c 9a3d 2600 27bb
000000c0: cd19 9a3d 165c 25bb b2f6 993d 128a 23bb
000000d0: 30d3 993d 440c 22bb 0ab0 993d 9480 20bb
000000e0: f78b 993d 0940 1fbb 416a 993d a45d 1dbb
000000f0: a646 993d 32cd 1bbb e823 993d 7114 1abb
00000100: 3402 993d 6dbd 18bb 79df 983d 6001 17bb
00000110: 0abe 983d 7aac 15bb 059b 983d 1ff7 13bb
00000120: d578 983d 8945 12bb 3757 983d 1beb 10bb
00000130: a733 983d e033 0fbb ce13 983d 6cc4 0dbb
00000140: fcf1 973d 3c1a 0cbb 66d0 973d 7372 0abb
00000150: 28b0 973d 1cf9 08bb 7590 973d c99d 07bb
00000160: 8070 973d 2bf3 05bb 1e50 973d 6d5e 04bb
00000170: 3132 973d 2cfc 02bb 5313 973d 058d 01bb
00000180: daf5 963d 833d ffba 42d8 963d 5728 fcba
00000190: 6ab8 963d 7ff3 f8ba f796 963d ccdd f5ba
000001a0: 9e7a 963d 5c67 f2ba 5559 963d dc78 eeba
000001b0: b03c 963d 9575 ebba f81e 963d e2f5 e8ba
000001c0: f107 963d c0f0 e5ba 4af1 953d d049 e3ba
000001d0: bbde 953d 392d e1ba 3cd1 953d 2886 dfba
0.07697691 -0.0031064118 0.076903604 -0.0030868717 0.07682523 -0.0030635246 0.076753184 -0.003042014
0.07667649 -0.0030237755 0.07660385 -0.002998576 0.076530844 -0.0029727162 0.076454535 -0.0029472045
0.07638179 -0.0029231317 0.076308094 -0.002898931 0.07623448 -0.0028795889 0.076161616 -0.002850398
0.076089695 -0.00282346 0.07601619 -0.002798119 0.075940706 -0.0027718917 0.07587073 -0.0027494365
0.075799465 -0.0027261095 0.075728215 -0.0026982487 0.075657584 -0.0026695721 0.07558626 -0.0026447838
0.07552012 -0.00262263 0.075449444 -0.0025961308 0.07538294 -0.0025711295 0.07531128 -0.0025482266
0.07524452 -0.002523189 0.075177565 -0.0024954122 0.07510984 -0.002472655 0.0750428 -0.00244907
0.07497399 -0.0024299643 0.074909694 -0.0024012113 0.07484178 -0.002377343 0.07477552 -0.002351072
0.07471123 -0.0023306266 0.07464499 -0.002304159 0.07458122 -0.00228384 0.07451443 -0.0022577716
0.07444922 -0.0022319278 0.0743851 -0.002211279 0.07431727 -0.0021850988 0.074256524 -0.002163197
0.07419202 -0.0021377942 0.07412796 -0.0021125346 0.07406646 -0.0020900434 0.074006 -0.0020693413
0.073945045 -0.002043913 0.07388328 -0.0020197884 0.0738262 -0.0019986732 0.07376733 -0.0019767892
0.07371111 -0.0019473288 0.07365467 -0.0019238096 0.07359393 -0.0018993466 0.07353013 -0.0018758117
0.07347606 -0.0018493938 0.073412575 -0.0018193978 0.07335794 -0.0017964119 0.073301256 -0.0017773474
0.073257335 -0.0017543063 0.07321413 -0.0017340723 0.07317873 -0.0017179615 0.07315299 -0.0017053531
